models/cnn_pytorch.pt (torch, 919229 bytes, 20 tensors)

conv1.weight f4 [32, 1, 3, 3]
0	0x3dbbb636	0.09165613
1	0xbeac8763	-0.33697042
2	0xbce8b0ea	-0.028404672
3	0xbd9148f6	-0.07093994
4	0xbe260e64	-0.16216427
5	0x3e09391d	0.13400693
6	0xbec2bb07	-0.38033316
7	0x3ded1d73	0.115778826
8	0x3e629f1f	0.22131012
9	0xbe78aaa2	-0.24283841
10	0xbe8ff590	-0.28117037
11	0x3dfe8610	0.12427914
12	0xbe5f82d7	-0.21827255
13	0x3df22673	0.1182374
14	0x3e4658ac	0.19369763
15	0x3e87708c	0.26453054
16	0x3e964022	0.29345804
17	0xbdc5c9bb	-0.09657618
18	0xbdb2562f	-0.087078445
19	0x3e19370f	0.1496241
20	0xbe461be8	-0.19346583
21	0x3e1a0fde	0.15045115
22	0x3dcf67ab	0.10127195
23	0xbe92ce49	-0.28673008
24	0x3dee03fd	0.116218545
25	0x3e9bd34b	0.3043464
26	0xbecee47d	-0.40408698
27	0x3e80cc6b	0.2515596
28	0xbea53985	-0.32270446
29	0xbdceda18	-0.10100192
30	0x3de8ac6c	0.11361012
31	0xbe64bf91	-0.22338702
32	0x3e4134c9	0.18867792
33	0xbe82e350	-0.2556405
34	0xbe7f7e8e	-0.2495062
35	0x3e9cb1c6	0.3060438
36	0xbd84edf4	-0.064906985
37	0xbeb5f6a6	-0.3553974
38	0x3eb8dc51	0.36105588
39	0x3e3efc5e	0.18650958
40	0xbe758bd7	-0.23979126
41	0x3da1aaa9	0.07893879
42	0x3e502b5c	0.2032904
43	0x3e2a6848	0.16641343
44	0xbc85b81d	-0.016323144
45	0x3e26dd16	0.16295275
46	0xbe964a21	-0.2935343
47	0xbde02b58	-0.10945767
48	0x3e4877a0	0.19576883
49	0x3e70cdf0	0.23516059
50	0x3e93b20d	0.2884678
51	0xbd85c4a1	-0.065316446
52	0xbeb2252b	-0.34793982
53	0x3dafd4ef	0.08585536
54	0xbe2aeef5	-0.16692717
55	0x3e13e037	0.14441
56	0x3e64d759	0.22347774
57	0xbeb6e1b1	-0.35719064
58	0xbeb3666f	-0.35039088
59	0xbe3e8511	-0.18605448
60	0x3de891a5	0.113559045
61	0xbe015731	-0.12630917
62	0x3e45e7cd	0.19326706
63	0x3e8232ac	0.25429285
64	0x3ea253b9	0.317045
65	0x3e458194	0.19287711
66	0xbe8c0902	-0.27350622
67	0x3e752259	0.23938884
68	0xbe6a1d52	-0.22862747
69	0xbe8ca545	-0.2746984
70	0xbea485f3	-0.32133445
71	0xbe663110	-0.22479653
72	0x3eb081e5	0.34474102
73	0xbe80e629	-0.25175598
74	0xbec0b0e3	-0.37634954
75	0x3e6b2ad5	0.22965558
76	0x3e2a0991	0.16605212
77	0x3e1f12b2	0.15534475
78	0xbe0d01fc	-0.13770288
79	0x3e7befd4	0.24603206
80	0x3d329570	0.043599546
81	0xbee245f3	-0.44193992
82	0x3cb0d223	0.021584576
83	0x3e252ff4	0.16131574
84	0xbebb2493	-0.3655134
85	0x3d45daa1	0.048304204
86	0x3d820d7d	0.06350229
87	0xbe13a34f	-0.14417766
88	0x3d2b8299	0.041872595
89	0x3e1847a3	0.14871077
90	0x3e65e2b1	0.22449757
91	0x3de403ef	0.11133563
92	0x3c858e57	0.016303224
93	0xbd2bb762	-0.041922934
94	0xbeb0f553	-0.34562168
95	0xbd01fc36	-0.031734668
96	0x3df25657	0.11832874
97	0x3d061aca	0.03274039
98	0x3ea5c827	0.32379267
99	0xbeb14dd9	-0.34629706
100	0xbd42aff7	-0.047531094
101	0xbd97f9c4	-0.07420686
102	0xbe1036f7	-0.14083467
103	0xbe87e22f	-0.26539752
104	0xbe3e5438	-0.18586814
105	0x3eb8e499	0.36111906
106	0xbae600dc	-0.0017547864
107	0xbe424cae	-0.18974563
108	0xbe9ebc12	-0.3100286
109	0xbeba16d3	-0.36345538
110	0xbd154d32	-0.036450572
111	0xbe44ce8a	-0.19219413
112	0x3e481be5	0.19541891
113	0xbddea6cd	-0.108716585
114	0x3ea1474e	0.31499714
115	0x3e673b38	0.22581184
116	0xbdcd0731	-0.10011137
117	0x3e0f3fe6	0.13989219
118	0x3e4af281	0.1981907
119	0xbea0012f	-0.31250903
120	0xbdee2f6b	-0.11630138
121	0x3eb4c269	0.35304573
122	0x3d2f1571	0.042745057
123	0xbe6281cc	-0.22119826
124	0xbe8ac303	-0.27101907
125	0x3e629d12	0.2213023
126	0x3e0bf2ee	0.13666889
127	0x3d69eda9	0.057111416
128	0x3e3feb98	0.18742216
129	0xbe6a5ae9	-0.22886242
130	0x3db6e561	0.08930469
131	0x3e2f1f6e	0.17101833
132	0xbeaa0167	-0.33204195
133	0xbe2ee1c7	-0.17078315
134	0x3e1e03df	0.15431164
135	0xbe80e028	-0.25171018
136	0x3e327f97	0.17431484
137	0x3eb3e514	0.3513571
138	0x3dc3f8d5	0.09568945
139	0x3e8a4306	0.2700426
140	0xbe807504	-0.25089276
141	0x3e16e6f0	0.14736533
142	0xbe9f0dda	-0.31065255
143	0xbe6bbc72	-0.23021105
144	0x3e649cc3	0.22325425
145	0xbeb3a4a9	-0.35086563
146	0xbe99fcfe	-0.3007583
147	0x3d5028a2	0.05082
148	0xbe5e7633	-0.21724777
149	0x3e605bca	0.21910015
150	0x3eb55eeb	0.3542398
151	0x3dba40f2	0.090944186
152	0x3af2616c	0.0018492169
153	0x3c33b9be	0.010969577
154	0xbe57273a	-0.21011057
155	0x3eb3c7d9	0.3511341
156	0xbd5dfb0a	-0.054194488
157	0xbe30730c	-0.17231387
158	0x3e589745	0.21151455
159	0xbea42255	-0.32057443
160	0x3be93ed6	0.0071180863
161	0xbe724c14	-0.23661834
162	0xbe84e2a4	-0.25954163
163	0xbd9266fc	-0.07148549
164	0xbe89181b	-0.26776204
165	0xbdcaa09c	-0.09893915
166	0x3e96b6be	0.29436296
167	0x3e75a18e	0.2398741
168	0x3bbd79b4	0.0057823304
169	0xbe4e4a0c	-0.20145434
170	0x3dd2eada	0.10298701
171	0x3e20ea5a	0.15714398
172	0xbeab98eb	-0.33515105
173	0x3eaefbdd	0.3417653
174	0x3e8dd39f	0.27700517
175	0xbdaf5da6	-0.08562784
176	0x3dfc0517	0.12305658
177	0xbd8371f6	-0.06418221
178	0xbd9bbd77	-0.07604497
179	0xbdf56ad5	-0.11983267
180	0xbd79d797	-0.060996618
181	0xbea139a8	-0.314893
182	0xbe349d80	-0.17638206
183	0x3dfa3c2d	0.12218509
184	0x3d6a1093	0.057144713
185	0xbeb73b9b	-0.35787663
186	0x3e84f443	0.25967607
187	0x3e641191	0.22272326
188	0x3dccbf22	0.09997393
189	0x3dba5a50	0.09099257
190	0xbcd25eae	-0.025679912
191	0xbc96921a	-0.018380214
192	0xbe96f057	-0.2948024
193	0x3e977702	0.29582983
194	0xbd4cacab	-0.049969357
195	0xbe4a5596	-0.19759211
196	0x3eb2b792	0.34905678
197	0xbe18f89a	-0.14938584
198	0xbe823a83	-0.25435266
199	0xbe47ed56	-0.1952413
200	0x3c188514	0.009309072
201	0x3e3c9f4b	0.1842014
202	0x3eca1eca	0.39476615
203	0x3d98bb18	0.0745756
204	0x3dcc6dfe	0.09981917
205	0xbe993558	-0.2992351
206	0xbcb3cd47	-0.02194847
207	0xbe5e6a43	-0.21720223
208	0xbdb2c550	-0.087290406
209	0x3ecdd802	0.40203863
210	0xbda72eaf	-0.08163201
211	0xbe8a2c2b	-0.26986822
212	0x3c3ba0db	0.011451925
213	0x3e640de7	0.22270928
214	0xbe026354	-0.12733203
215	0xbe9d4af7	-0.30721256
216	0x3e94718c	0.2899288
217	0x3e189e8e	0.14904234
218	0xbe1c9173	-0.1528986
219	0xbe8fb36c	-0.28066576
220	0x3bbdf060	0.005796477
221	0x3e902849	0.28155735
222	0x3e66902b	0.22515933
223	0xbea2f66a	-0.31828624
224	0x3e8a8b33	0.27059326
225	0xbe517acd	-0.20457001
226	0xbe94aae0	-0.29036617
227	0xbeabb0e4	-0.33533394
228	0xbe19e55f	-0.15028904
229	0x3e8baf85	0.27282348
230	0xbe99c560	-0.30033398
231	0x3ebeb967	0.37250826
232	0x3da13966	0.07872276
233	0xbddacdd5	-0.106837906
234	0x3e8d8b8c	0.27645528
235	0xbc6774c8	-0.014126964
236	0xbe426823	-0.18985038
237	0x3ea6b0d2	0.32556778
238	0xbe136e1a	-0.14397469
239	0xbe3cacd5	-0.18425305
240	0xbe68b9fa	-0.22727194
241	0xbe03cfba	-0.1287221
242	0xbe39e084	-0.18152052
243	0xbe7afff5	-0.24511702
244	0x3db67183	0.089083694
245	0x3e8581c9	0.2607558
246	0xbeb39dd3	-0.35081348
247	0x3df96b8d	0.12178717
248	0x3dcf4964	0.1012142
249	0x3c03b7a0	0.008039385
250	0xbe8c72fc	-0.27431476
251	0x3c3c2af4	0.01148485
252	0x3e3d0fa7	0.18463002
253	0x3ebb3ef7	0.36571476
254	0x3e16a9fa	0.14713278
255	0x3dc80f53	0.09768548

conv1.bias f4 [32]
0	0x3cc91431	0.02454576
1	0xbe847746	-0.25872248
2	0xbdee77cd	-0.11643944
3	0xbe8eea13	-0.2791296
4	0x3d95ac42	0.07308246
5	0x3ec8dffb	0.39233384
6	0xbdd43015	-0.103607334
7	0x3e880422	0.26565653
8	0xbe8bd7bf	-0.2731304
9	0x3d1070dc	0.03526388
10	0x3ed7dda1	0.42161277
11	0xbe4d2c42	-0.20036414
12	0xbb691698	-0.0035566445
13	0xbdd1c84f	-0.10243284
14	0x3d3201af	0.043458637
15	0x3e4b49e0	0.198524
16	0xbdc3dcb7	-0.095635824
17	0xbe022be0	-0.1271205
18	0x3ec21e7a	0.37913877
19	0xbe496a91	-0.19669558
20	0xbe505369	-0.20344318
21	0x3d8f5e6b	0.07000431
22	0x3eb7f750	0.35930872
23	0xbd3f0071	-0.04663128
24	0x3c2cee50	0.010554865
25	0x3d8b4c68	0.06801683
26	0xbca4ce36	-0.02011786
27	0x3ed35e68	0.41282964
28	0xbd8ee47d	-0.069771744
29	0xbee08b4c	-0.43856275
30	0x3e80e203	0.25172433
31	0xbd35d04e	-0.044388108

bn1.weight f4 [32]
0	0x3f8bce08	1.0922251
1	0x3f75c8e4	0.9600966
2	0x3f9072a1	1.1284982
3	0x3fa581b2	1.2930205
4	0x3f1923c7	0.59820217
5	0x3f381cf3	0.71919173
6	0x3f3ab887	0.72937816
7	0x3fadfc54	1.359263
8	0x3eff8c45	0.49911705
9	0x3f3939ee	0.7235402
10	0x3f2865e2	0.6578046
11	0x3f4912d8	0.7854438
12	0x3f8b93cd	1.090448
13	0x3f65efe3	0.89819163
14	0x3f82b39a	1.021106
15	0x3f8b7eea	1.0898106
16	0x3f484ed7	0.782453
17	0x3f8eef47	1.1166772
18	0x3f63b438	0.88946867
19	0x3ee43efa	0.44579297
20	0x3f8c6557	1.0968426
21	0x3f56ddc9	0.8393217
22	0x3f5f7195	0.8728269
23	0x3f90fb65	1.132672
24	0x3f11c655	0.56943256
25	0x3fb2d42e	1.3971002
26	0x3fb940a2	1.4472849
27	0x3f842d2e	1.0326288
28	0x3ebeaff8	0.37243629
29	0x3f645932	0.891986
30	0x3f80dc88	1.0067301
31	0x3f6ea13b	0.9321477

bn1.bias f4 [32]
0	0xbe543d00	-0.20726395
1	0xbee1dce2	-0.44113833
2	0xbdc13a22	-0.09434916
3	0xbe853840	-0.26019478
4	0xbf16b053	-0.588628
5	0xbf2e403d	-0.6806677
6	0xbeb9d38e	-0.36294216
7	0xbd342439	-0.043979857
8	0xbf1237e5	-0.5711654
9	0xbe23551e	-0.15950438
10	0xbef57493	-0.47940502
11	0xbe8f2b96	-0.2796294
12	0x3e05d059	0.1306776
13	0xbf1c9543	-0.61165255
14	0xbe8309d0	-0.25593424
15	0xbe9215b8	-0.28532195
16	0xbe2af196	-0.1669372
17	0xbe9d48c5	-0.3071958
18	0xbe89c079	-0.26904657
19	0xbf1697c4	-0.58825326
20	0xbe2d931e	-0.16950652
21	0xbed670cf	-0.4188294
22	0xbf11c722	-0.5694448
23	0xbe688d7d	-0.22710223
24	0xbf31bf71	-0.6943274
25	0xbeadacf8	-0.33921027
26	0xbe921934	-0.28534853
27	0xbd66f66f	-0.05638736
28	0xbef79df0	-0.48362684
29	0xbe615c4e	-0.22007868
30	0xbe07b1a6	-0.13251361
31	0xbecc3188	-0.3988154

bn1.running_mean f4 [32]
0	0xbd7a4df5	-0.061109502
1	0xbe6b414d	-0.22974129
2	0xbe134e7a	-0.14385405
3	0xbeacfab1	-0.33785012
4	0x3e118d28	0.14214003
5	0x3ed9137e	0.42397684
6	0xbe538406	-0.20655832
7	0x3e4f300b	0.2023317
8	0xbe4192b7	-0.18903624
9	0xbd735cec	-0.05941479
10	0x3f00d94d	0.50331575
11	0xbec18a3e	-0.37800783
12	0xbd9ecfae	-0.077544555
13	0xbdb58c31	-0.0886463
14	0x3d6f5014	0.058425978
15	0x3e4786d0	0.1948502
16	0xbda6f4b6	-0.08152144
17	0xbe59def5	-0.21276458
18	0x3ea68ea4	0.325307
19	0xbe1dd2d1	-0.15412451
20	0xbe6d9a6d	-0.2320344
21	0x3d93cf49	0.07217271
22	0x3eb5e295	0.3552443
23	0xbe0f245c	-0.13978714
24	0x3ddc7e80	0.107663155
25	0xbd808c38	-0.062767446
26	0xbde7dc7e	-0.113213524
27	0x3eb72271	0.35768464
28	0x3e9427e4	0.28936684
29	0xbef6ddf0	-0.482162
30	0x3e421fcf	0.18957447
31	0xbe17ae86	-0.14812669

bn1.running_var f4 [32]
0	0x3d164498	0.03668651
1	0x3cedc8c5	0.029026398
2	0x3ceddca0	0.029035866
3	0x3cd074d4	0.025446333
4	0x3c83b5c9	0.016077893
5	0x3bfba5a8	0.00767966
6	0x3d27a557	0.040929165
7	0x3d626720	0.05527413
8	0x3d04be9c	0.03240834
9	0x3d76d9a4	0.060266152
10	0x3c5fc844	0.013658587
11	0x3daa06de	0.08302091
12	0x3d1df395	0.038562376
13	0x3c0b7cd4	0.008513648
14	0x3cdb7307	0.026788248
15	0x3c954398	0.018220708
16	0x3cc4ae3d	0.024008865
17	0x3d0a8ca1	0.03382552
18	0x3c808c32	0.01569185
19	0x3c10c82b	0.008836786
20	0x3d0baf93	0.034102987
21	0x3ba9c2b2	0.00518068
22	0x3baf3791	0.0053472
23	0x3cf270a1	0.029594721
24	0x3ca4fd0b	0.020140192
25	0x3d88e7b0	0.06684816
26	0x3d581947	0.05275848
27	0x3cef20f1	0.029190512
28	0x3e910c27	0.28329584
29	0x3d8a4311	0.06751073
30	0x3d0c0c00	0.03419113
31	0x3cf872c8	0.03032817

conv2.weight f4 [64, 32, 3, 3]
0	0xbb6b0679	-0.0035862012
1	0x3ba612c6	0.005068156
2	0xbdf9fc12	-0.12206282
3	0x3e2166b8	0.1576184
4	0x3cbbe6d5	0.022937218
5	0x3de0db7d	0.10979364
6	0xbc9c1045	-0.019050727
7	0x3e3b7f37	0.18310247
8	0x3d8a0f2f	0.06741177
9	0xbdbf3c8f	-0.093377225
10	0xbd0f5b33	-0.034999084
11	0xbdc133ce	-0.09433709
12	0x3cf38986	0.029728662
13	0x3d646d25	0.05576815
14	0x3c1140b9	0.008865529
15	0xbbcd9fa2	-0.006275133
16	0xbd59551f	-0.053059693
17	0x3d91b3f2	0.071144
18	0x3ba1d7bd	0.004939048
19	0xbe28aeef	-0.16472982
20	0xbbd02fc1	-0.006353349
21	0x3d08e9a6	0.03342595
22	0x3dface9a	0.12246437
23	0x3e377fbf	0.17919825
24	0x3ddc1299	0.10745735
25	0x3e4a0256	0.19727454
26	0x3d3cf6cd	0.046133805
27	0x3cf753f8	0.030191407
28	0xbdce112d	-0.1006187
29	0xbe01d366	-0.12678298
30	0x3dd4380d	0.10362253
31	0x3e08a4b8	0.13344085
32	0x3de464e5	0.111520566
33	0x3da9170a	0.082563475
34	0x3e812b0a	0.2522815
35	0x3de82285	0.11334709
36	0xbdd4f91b	-0.103990756
37	0xbe6b71ea	-0.22992674
38	0xbe162681	-0.14663126
39	0xbde3fc61	-0.11132122
40	0xbd6fcb41	-0.058543447
41	0xbe3bba4e	-0.18332788
42	0x3d380701	0.044928554
43	0xbde1423c	-0.10998961
44	0xbe2c334c	-0.16816443
45	0xbdb0c8c2	-0.086320415
46	0xbd69e255	-0.057100613
47	0xbe5981fe	-0.21240994
48	0xbe0d8dac	-0.13823575
49	0xbde1ac1b	-0.11019155
50	0xbd8c7cc3	-0.06859734
51	0xbd378260	-0.04480207
52	0xbddcb96a	-0.107775524
53	0x3d30832e	0.043093853
54	0xbe1fa7a3	-0.15591292
55	0xbdad9892	-0.08476366
56	0x3d914c96	0.07094686
57	0xbdefc0e5	-0.117067136
58	0x3c9addaf	0.018904535
59	0xbc1541c7	-0.009109921
60	0xbd678e08	-0.056531936
61	0x3e3bf747	0.18356048
62	0xbd12cc06	-0.035839103
63	0xbd2eb217	-0.04265031
64	0xbcb6d994	-0.022320546
65	0x3e1c5bf0	0.15269446
66	0xbe4d7b4a	-0.20066562
67	0xbdb0a524	-0.08625248
68	0xbb46dd25	-0.0030344215
69	0xbd6bda76	-0.057581387
70	0x3dc3e38d	0.09564886
71	0x3e0c6cd9	0.13713397
72	0xbcba94bc	-0.022776
73	0xbe1b3459	-0.15156688
74	0xbdf9c13c	-0.1219506
75	0xbdaf010f	-0.08545124
76	0xbd97784d	-0.073959924
77	0x3c99ebab	0.018789133
78	0x3a9cf1ad	0.001197388
79	0xbc2ce5b5	-0.010552813
80	0xbdc9e316	-0.09857766
81	0xbc0b8c59	-0.008517348
82	0xbd5670cf	-0.052353676
83	0xbdd68f8d	-0.10476599
84	0x3d9dcae5	0.07704715
85	0x3d6862b5	0.05673476
86	0xbd2170d0	-0.039414227
87	0x3d6a07f2	0.057136483
88	0x3de79de6	0.113094136
89	0x3df756e7	0.12077122
90	0xbde6f09a	-0.1127636
91	0xbe12a9d5	-0.14322598
92	0xbe249887	-0.1607381
93	0x3c149b00	0.009070158
94	0xbe9242bb	-0.28566536
95	0xbdb76306	-0.08954434
96	0x3c4932c2	0.012280168
97	0xbe42f7d1	-0.19039847
98	0xbe8f8942	-0.28034407
99	0x3d304cbf	0.04304194
100	0x3d979efa	0.07403369
101	0x3e24f64e	0.16109583
102	0xbd1df783	-0.038566124
103	0x3d9a9bcf	0.075492494
104	0xbd40f1a2	-0.04710544
105	0x3d42836c	0.047488615
106	0xbd5942c3	-0.053042185
107	0xbe1495ca	-0.14510265
108	0xbdfaff43	-0.122557186
109	0x3bbf79a2	0.005843357
110	0x3bc44dc9	0.005990718
111	0xbe168fae	-0.14703247
112	0x3e70b822	0.23507741
113	0x3e16e692	0.14736393
114	0x3cf4fb46	0.029904973
115	0x3d841466	0.06449203
116	0xbbd56f4e	-0.0065135127
117	0xbdcfeb9c	-0.10152361
118	0xbdc83821	-0.09776331
119	0xbded0cd8	-0.115747154
120	0xbe2d88d0	-0.16946721
121	0xbdc1edd0	-0.09469187
122	0xbca80f97	-0.020515246
123	0xbe004672	-0.12526873
124	0x3dc74a63	0.09730985
125	0x3c4fca5e	0.012682525
126	0xbe1e2431	-0.15443493
127	0xbdf5beb8	-0.11999267
128	0xbdf1db13	-0.11809363
129	0xbd07a560	-0.0331167
130	0xbd2ccd58	-0.04218802
131	0xbd61a705	-0.055090923
132	0xbd1b7bdf	-0.03795993
133	0x3bc43d4c	0.0059887525
134	0x3d1356da	0.0359715
135	0xbc812e10	-0.015769035
136	0x3cddae9f	0.027060805
137	0x3de941d9	0.113895126
138	0xbd42a783	-0.047523033
139	0x3c7cee61	0.015437693
140	0xbdbc3c26	-0.0919116
141	0xbcb5815d	-0.022156412
142	0x3dd381a3	0.103274606
143	0x3e130b85	0.14359863
144	0xbd040208	-0.0322285
145	0xbe0c42ce	-0.13697359
146	0xbde8a2ed	-0.113592006
147	0xbcdd9cc8	-0.027052298
148	0x3c80a756	0.015704792
149	0x3ce658ba	0.02811848
150	0xbc750aa1	-0.014956147
151	0xbce87866	-0.028377723
152	0x3caa9fb7	0.020828111
153	0xbe0ac1eb	-0.13550536
154	0xbde48e6e	-0.11159979
155	0xbc121612	-0.008916395
156	0xbcd758fb	-0.026287546
157	0xbddf8547	-0.109140925
158	0xbd9b042f	-0.07569157
159	0x3db882af	0.09009301
160	0x3db8f0b3	0.09030285
161	0x3e673304	0.22578055
162	0xbd9942e7	-0.07483464
163	0xba8e8fea	-0.001087663
164	0xbdd61065	-0.10452346
165	0x3d5c7343	0.05382086
166	0x3e30ded6	0.17272505
167	0x3d831084	0.063996345
168	0x3c09eb85	0.008417969
169	0x3d87e887	0.06636148
170	0xbb9c7c0d	-0.00477553
171	0xbd388e21	-0.04505742
172	0xbe3c165c	-0.18367904
173	0xbc56fe91	-0.013122217
174	0xbe0c32d9	-0.13691272
175	0xbe2e4cb9	-0.17021455
176	0xbe06c342	-0.13160422
177	0x3d26a22e	0.04068201
178	0xbdc5207e	-0.09625338
179	0xbd2ffea4	-0.042967454
180	0xbcd815ea	-0.026377637
181	0xbd3cdf7a	-0.04611156
182	0x3e00d62c	0.125817
183	0xbdb050c4	-0.08609155
184	0x3cf65500	0.030069828
185	0x3e2d7d32	0.1694229
186	0xbd744ad2	-0.059641667
187	0xbcc51f36	-0.024062734
188	0xbbc24e25	-0.0059297257
189	0xbd2c4ba8	-0.04206434
190	0xbdda2207	-0.106510215
191	0xbdc03a0f	-0.09386074
192	0x3b13cec2	0.0022553657
193	0x3d9109fc	0.070819825
194	0xbc1b3c21	-0.009474785
195	0xbcc839bb	-0.02444159
196	0x3ddff2b7	0.10934966
197	0x3e0de592	0.13857105
198	0xbdbbb838	-0.09165996
199	0xbdc43c8f	-0.09581863
200	0xbdc0d2fd	-0.09415243
201	0xbe605afa	-0.21909705
202	0x3d87249d	0.0659878
203	0xbc14a766	-0.009073114
204	0x3dda1162	0.10647847
205	0x3d7e918e	0.06215053
206	0x3de72e96	0.112881824
207	0xbdb12eb5	-0.08651487
208	0xbc629d9c	-0.013831522
209	0x3e980641	0.2969227
210	0xbd10a844	-0.03531672
211	0x3d459300	0.048235893
212	0xbd97baa4	-0.07408646
213	0x3d88d415	0.066810764
214	0x3e1ec3ab	0.15504329
215	0x3e5be98e	0.21475813
216	0xbdea2ac0	-0.11433935
217	0xbe59df0a	-0.21276489
218	0xbe0fc935	-0.14041598
219	0x3c0788b8	0.008272342
220	0xbdf0f36f	-0.11765181
221	0xbdb5e179	-0.08880896
222	0xbd1e27ea	-0.038612284
223	0xbe373480	-0.17891121
224	0xbe415e56	-0.18883643
225	0xbdf961dd	-0.12176869
226	0xbaf7d4fe	-0.0018908081
227	0x3e65e907	0.22452174
228	0xbd1c0ffa	-0.038101174
229	0x3e31861c	0.17336315
230	0x3e865360	0.26235485
231	0x3d480ed5	0.04884227
232	0xbc02eb5d	-0.007990685
233	0xbd2994e1	-0.041401748
234	0x3e2042df	0.1565051
235	0x3bfe8dbb	0.0077683604
236	0xbdb6ae30	-0.089199424
237	0x3ccc384f	0.024929194
238	0xbdc672d4	-0.096898705
239	0xbd826f02	-0.06368829
240	0x3d5b5615	0.05354889
241	0x3ea5183a	0.32245046
242	0x3e373f1a	0.17895165
243	0xbdd1f1c0	-0.10251188
244	0xbd0c8712	-0.0343085
245	0xbdb257d3	-0.087081574
246	0xbd9ff178	-0.078097284
247	0xbcc6a45d	-0.024248296
248	0xbd912d2d	-0.07088695
249	0x3c584d93	0.013202089
250	0x3e32c41d	0.17457624
251	0x3e44e385	0.19227417
252	0xbcdc14d9	-0.02686541
253	0xbe05fc27	-0.1308447
254	0xbdbc5369	-0.09195597
255	0xbd872af2	-0.06599988

conv2.bias f4 [64]
0	0xbd66bb03	-0.056330692
1	0xbc92cede	-0.017920908
2	0x3c85cd5a	0.01633327
3	0x3cc3d809	0.023906725
4	0x3d24d378	0.040240735
5	0x3caf57fa	0.021404255
6	0x3c92bacc	0.017911337
7	0x3d8c7926	0.06859045
8	0xbba2741f	-0.0049576904
9	0x38f34b80	0.00011601206
10	0xbd86cb6b	-0.06581768
11	0xbc87b8d2	-0.016567621
12	0xbd0f9d43	-0.035062086
13	0xbd087cd7	-0.03332218
14	0x3cc6dfbf	0.024276612
15	0xbcc36e10	-0.023856193
16	0xbd805512	-0.06266226
17	0x3d76a4c6	0.060215734
18	0xbdb24eae	-0.08706413
19	0xbdce099b	-0.10060426
20	0xbdf610eb	-0.120149456
21	0xbcdb3d09	-0.026762502
22	0xbcaaa759	-0.02083175
23	0xbd8170f1	-0.0632037
24	0xbd4ee788	-0.050513774
25	0xbd844886	-0.06459145
26	0xbb21dace	-0.0024697068
27	0x3c917034	0.017753698
28	0x3e41ba6f	0.18918775
29	0x3c5174bc	0.012784179
30	0x3e1510eb	0.14557235
31	0x3c0bfb03	0.008543733
32	0x3d024ca2	0.031811364
33	0xbcafcb14	-0.02145914
34	0xbd7ee4b0	-0.062229812
35	0x3d23db2c	0.04000394
36	0x3d576073	0.052582216
37	0x3d3b04d2	0.045658894
38	0xbda70006	-0.08154301
39	0xbb034dbf	-0.0020035354
40	0x3d9f7726	0.07786398
41	0x3d487149	0.048936162
42	0xbc863dc6	-0.016386878
43	0x3cbb252b	0.022844872
44	0xbd5a3e18	-0.053281873
45	0x3d52ca8d	0.0514627
46	0xbdc5890a	-0.09645279
47	0xbd29e561	-0.04147852
48	0xbc1c0a51	-0.009523944
49	0x3d59561e	0.053060643
50	0xbc7c745b	-0.015408601
51	0x3c6bc3a0	0.014389902
52	0x3dfb0f65	0.12258796
53	0xbd61819f	-0.055055257
54	0x3d5d8fc2	0.054092176
55	0x3d0442f6	0.03229042
56	0x3df8007a	0.12109466
57	0xbd458df5	-0.048231084
58	0x3d0618ef	0.032738622
59	0x3c44b5cd	0.012006235
60	0xbd1e17b1	-0.038596813
61	0xbdb45d8a	-0.08806904
62	0x3d37f824	0.04491438
63	0xbd22a230	-0.039705455

bn2.weight f4 [64]
0	0x3f6bf142	0.92165005
1	0x3f49ad65	0.78780204
2	0x3f4c3a1e	0.7977618
3	0x3f804328	1.0020494
4	0x3f629071	0.8850165
5	0x3f31da49	0.694737
6	0x3f399bd5	0.72503406
7	0x3f48cb17	0.7843489
8	0x3f5092a5	0.8147376
9	0x3f349d9d	0.70553
10	0x3f67e922	0.9059011
11	0x3f588719	0.8458114
12	0x3f630165	0.88674
13	0x3f577686	0.8416523
14	0x3f74bd25	0.9560111
15	0x3f5d02be	0.8633231
16	0x3f752245	0.95755416
17	0x3f4a2117	0.7895674
18	0x3f8cb43a	1.0992501
19	0x3f434eec	0.762923
20	0x3f7afe37	0.9804415
21	0x3f83595d	1.0261647
22	0x3f5a24f9	0.85212666
23	0x3f6cff1f	0.92576784
24	0x3f3d8515	0.7403119
25	0x3f438c63	0.7638609
26	0x3f538f7c	0.82640815
27	0x3f443e9a	0.7665802
28	0x3f3a8cae	0.7287091
29	0x3f74489d	0.954233
30	0x3f6942e9	0.9111772
31	0x3f3553e1	0.70831114
32	0x3f6948bd	0.91126615
33	0x3f689198	0.9084716
34	0x3f6ffa31	0.93741137
35	0x3f7653b1	0.9622145
36	0x3f806564	1.0030942
37	0x3f8ca504	1.0987859
38	0x3f7f75f3	0.9978935
39	0x3f55e278	0.8354869
40	0x3f707273	0.93924636
41	0x3f4adfcd	0.7924774
42	0x3f7f7347	0.99785274
43	0x3f3f287e	0.7467116
44	0x3f5bfaaf	0.8592939
45	0x3f5d5fbf	0.8647422
46	0x3f7bddf9	0.9838558
47	0x3f60b0f1	0.8776999
48	0x3f4bc42d	0.79596215
49	0x3f4a6c71	0.7907172
50	0x3f50dcc8	0.81586885
51	0x3f77874e	0.96690834
52	0x3f753a1d	0.957918
53	0x3f848d9c	1.0355716
54	0x3f50d82b	0.81579846
55	0x3f7aaa2a	0.979159
56	0x3f5fc9c1	0.8741723
57	0x3f53ca5b	0.82730645
58	0x3f596fbf	0.84936136
59	0x3f6752eb	0.903609
60	0x3f653601	0.8953553
61	0x3f630a0a	0.88687193
62	0x3f48ae28	0.7839074
63	0x3f473f9d	0.7783144

bn2.bias f4 [64]
0	0xbf0cf760	-0.55064964
1	0xbee8c581	-0.45463184
2	0xbf0789bd	-0.52944547
3	0xbf09064c	-0.53525233
4	0xbf11f537	-0.57014793
5	0xbf754a33	-0.95816344
6	0xbf28404e	-0.6572312
7	0xbf491906	-0.7855381
8	0xbf6cb995	-0.92470676
9	0xbeebb339	-0.46035174
10	0xbf05967a	-0.52182734
11	0xbf44bb3f	-0.76848215
12	0xbf25a56d	-0.64705545
13	0xbeeca201	-0.4621735
14	0xbf09b4d9	-0.53791577
15	0xbf2f2a9c	-0.6842439
16	0xbf07e5d8	-0.5308509
17	0xbf05e8d4	-0.5230839
18	0xbf3667c1	-0.71252066
19	0xbf6fc0ee	-0.9365376
20	0xbefdae8a	-0.49547225
21	0xbf171a91	-0.5902491
22	0xbf14f79e	-0.58190334
23	0xbf897bea	-1.074094
24	0xbf382dfb	-0.7194516
25	0xbf5c380b	-0.86023015
26	0xbeed53e2	-0.4635306
27	0xbf5ad094	-0.85474515
28	0xbf7e2b38	-0.99284697
29	0xbef1e677	-0.47246143
30	0xbefd3e34	-0.4946152
31	0xbec216ba	-0.37907964
32	0xbf1c2857	-0.60999054
33	0xbf1645f2	-0.5870048
34	0xbf03df24	-0.5151236
35	0xbf23e5a1	-0.6402226
36	0xbf06dcd9	-0.52680737
37	0xbf19ccf5	-0.60078365
38	0xbf24608e	-0.6420983
39	0xbeefd358	-0.4684093
40	0xbeacadb1	-0.33726266
41	0xbf000515	-0.50007755
42	0xbf15d909	-0.58534294
43	0xbf56527d	-0.8371962
44	0xbf03787a	-0.5135571
45	0xbefeddae	-0.49778503
46	0xbf29e1ac	-0.6635997
47	0xbee9e287	-0.4568064
48	0xbee22c47	-0.44174406
49	0xbf0dc6e0	-0.55381584
50	0xbf8a88fb	-1.0823053
51	0xbf055e30	-0.52096844
52	0xbf0b93ff	-0.545227
53	0xbf2051aa	-0.6262461
54	0xbee3778c	-0.44427145
55	0xbee70c85	-0.4512674
56	0xbed7b3e9	-0.42129448
57	0xbf087552	-0.53304017
58	0xbee2b2b9	-0.4427698
59	0xbf0bfe29	-0.5468469
60	0xbf1682ba	-0.5879322
61	0xbf195b00	-0.5990448
62	0xbed848c2	-0.4224301
63	0xbf0ff9c7	-0.56240505

bn2.running_mean f4 [64]
0	0xbd94ca78	-0.0726518
1	0xbfcb3e77	-1.5878438
2	0xbfcabee1	-1.5839502
3	0xbfb7e0f8	-1.436553
4	0xbfe12310	-1.7588825
5	0xbf584b36	-0.8448976
6	0x3f707002	0.9392091
7	0xbe9c8ebc	-0.30577648
8	0xbf03c614	-0.5147412
9	0xbfe2748c	-1.7691817
10	0xbfdb101a	-1.7114289
11	0x3ea71650	0.3263421
12	0xbfbe4b54	-1.4866738
13	0xbfe7ea22	-1.8118327
14	0xbf73c7d2	-0.95226777
15	0xbfb3dfb7	-1.4052647
16	0xbfcfbf50	-1.6230259
17	0xbfe323b6	-1.7745273
18	0xbfc57515	-1.5426356
19	0xbf2c1b51	-0.6722918
20	0xbf694da6	-0.9113411
21	0xbe60333c	-0.21894544
22	0xc0375492	-2.8645368
23	0xbeb48dac	-0.35264337
24	0x3d6fe31e	0.058566205
25	0xbf766d22	-0.96260273
26	0xc0157eda	-2.3358674
27	0x3fbf1e98	1.4931211
28	0xbf1fc7ea	-0.6241442
29	0xbf566425	-0.8374656
30	0x3e0fb9d2	0.14035729
31	0xbf9b6de3	-1.214291
32	0xbf2604df	-0.6485118
33	0xbffe87ee	-1.9885232
34	0xbfdc545c	-1.7213244
35	0xbccd8704	-0.025088795
36	0xbfb84931	-1.4397336
37	0xbf5a7534	-0.8533509
38	0xbe95868a	-0.29204208
39	0xbfe2bfbd	-1.7714764
40	0xbf79b459	-0.97540814
41	0xbf8c6a8c	-1.0970016
42	0xc0234a66	-2.551416
43	0x3ebcd35b	0.3688
44	0xc027a8f2	-2.6196866
45	0xbe17234e	-0.14759561
46	0xbfb24db3	-1.3929962
47	0xbeaff779	-0.34368494
48	0xbff8a511	-1.9425374
49	0xbff9bdde	-1.9511068
50	0xbf361c48	-0.71136904
51	0xc0866e7b	-4.2009864
52	0xbdc3a60e	-0.09553157
53	0xbf0690c6	-0.52564657
54	0xbfe0e64a	-1.7570279
55	0xc085eeea	-4.1854143
56	0xbf454f65	-0.7707427
57	0xbf92870c	-1.1447463
58	0xbfec0c7f	-1.8441314
59	0xbf85911a	-1.0434906
60	0xc0271f40	-2.6112823
61	0xbfd5f380	-1.6714935
62	0xbf372b70	-0.71550655
63	0xbfd75e3e	-1.6825635

bn2.running_var f4 [64]
0	0x40b0fea5	5.5310845
1	0x40c0042b	6.000509
2	0x40f108d8	7.5323296
3	0x40a00086	5.000064
4	0x40e52f77	7.162044
5	0x40060ee4	2.0946589
6	0x408ec552	4.461587
7	0x401889b1	2.383404
8	0x402508f7	2.5786722
9	0x409f195b	4.971845
10	0x407d6415	3.9592335
11	0x4061284e	3.518085
12	0x408e5adb	4.4485908
13	0x40853e96	4.16389
14	0x41109bca	9.038034
15	0x4062db66	3.544641
16	0x4081bc37	4.0542254
17	0x408beed8	4.3729057
18	0x4049f584	3.15561
19	0x40090273	2.1407745
20	0x40beb92f	5.9601054
21	0x404ddb4f	3.2165105
22	0x409cbcf7	4.898067
23	0x4012e192	2.2950177
24	0x409d7da0	4.921585
25	0x40317abf	2.7731168
26	0x40cdadcb	6.427465
27	0x4071689c	3.7720098
28	0x40027a21	2.0387042
29	0x40b7e9ca	5.7472887
30	0x40ae4385	5.445742
31	0x40fec21e	7.961196
32	0x40a0575b	5.0106635
33	0x4096a6bd	4.707854
34	0x40e78ccd	7.2359376
35	0x40735b4c	3.8024473
36	0x40c9396f	6.288261
37	0x408d3b5b	4.4134955
38	0x401d314c	2.4561338
39	0x40c48ea9	6.1424146
40	0x40a82afe	5.255248
41	0x409bbbfc	4.8666973
42	0x40b32cab	5.5992026
43	0x40200cce	2.5007815
44	0x410b9e76	8.726187
45	0x409c4dba	4.884488
46	0x4048aa0f	3.1353796
47	0x40a18e87	5.0486484
48	0x40ab2e26	5.3493834
49	0x404c1f10	3.189396
50	0x3fd74c01	1.682007
51	0x4100ae71	8.042588
52	0x40801550	4.0026016
53	0x404b7af6	3.17938
54	0x40a12b46	5.0365324
55	0x4100b78c	8.044811
56	0x4089607e	4.293029
57	0x40a47413	5.139169
58	0x40b00f78	5.5018883
59	0x40a6c29a	5.211255
60	0x40af9f31	5.4881825
61	0x40891d6d	4.284842
62	0x409bfcb4	4.8745975
63	0x40d82f47	6.755771

fc1.weight f4 [128, 1600]
0	0xbd6a9ec0	-0.057280302
1	0x3b968b07	0.00459421
2	0xbc9f9eaa	-0.019484837
3	0x3dd175fb	0.10227581
4	0xbe8a6423	-0.27029523
5	0xbda1c209	-0.078983374
6	0x3c9cd36b	0.01914378
7	0x3da68f7d	0.08132837
8	0x3e362f94	0.17791587
9	0xbd89b73b	-0.067244016
10	0x3df1ada1	0.11800695
11	0xbc13a70a	-0.009011993
12	0xbde01214	-0.10940948
13	0xbe0a029e	-0.13477561
14	0xbdd88326	-0.105718896
15	0x3ce8e789	0.028430717
16	0xbd045cf8	-0.032315224
17	0xbe11c43d	-0.14235015
18	0xbe00a6c7	-0.1256362
19	0x3c80c97c	0.015721075
20	0xbde31e30	-0.11089742
21	0xbe0587b2	-0.13040045
22	0x3d56d1f2	0.052446313
23	0x3e0c3f55	0.13696034
24	0x3d7a9804	0.06118013
25	0xbd188882	-0.03723956
26	0x3d96adb5	0.07357351
27	0x3df504f2	0.11963834
28	0x3df95e0c	0.12176141
29	0x3bce388f	0.0062933634
30	0x3dc1c1bd	0.09460781
31	0x3d357fc5	0.044311304
32	0xbcd2c09b	-0.025726607
33	0x3d675151	0.056474034
34	0x3d98ca69	0.07460482
35	0x3d78b7c5	0.06072213
36	0x3d352238	0.044222087
37	0x3cfa429c	0.03054934
38	0xbd8d2339	-0.06891484
39	0x3d92a2a1	0.07159925
40	0xbd0603a2	-0.03271831
41	0xbcb328d5	-0.021870056
42	0xbd02156e	-0.03175872
43	0x3d946bac	0.07247099
44	0x3e009505	0.12556846
45	0xbe3a73ed	-0.18208285
46	0xbcb4868d	-0.022036815
47	0xbdd0c785	-0.10194305
48	0xbc439177	-0.011936537
49	0x3aa6424c	0.0012684553
50	0x3c5712d4	0.013127048
51	0xbca607ff	-0.020267485
52	0xbbe523fd	-0.0069928155
53	0x3d0877fe	0.03331756
54	0xbdc34996	-0.0953552
55	0xbbfe5b28	-0.0077623315
56	0x3deb19b5	0.114795126
57	0x3d19cbcc	0.03754787
58	0x3d369c90	0.044582903
59	0x3cb17199	0.021660613
60	0x3dcbdba8	0.099540055
61	0x3dd81126	0.10550146
62	0xbd074ad9	-0.033030365
63	0xbd8afce5	-0.06786517
64	0x3d1243cf	0.0357092
65	0x3da006cd	0.07813797
66	0x3cf10dfc	0.029425614
67	0x3d7fc9a3	0.062448155
68	0x3bf520e9	0.00748073
69	0x3e035054	0.12823611
70	0x3d848673	0.06470957
71	0xbda6d6f1	-0.081464656
72	0x3cde343e	0.02712452
73	0xbc6b794b	-0.01437218
74	0x3dbd4f34	0.092436224
75	0xbd865043	-0.065582775
76	0xbdac0f6d	-0.0840138
77	0xbdbe61c3	-0.0929599
78	0xbe6b031a	-0.22950402
79	0xbe39efca	-0.18157879
80	0xbc01986a	-0.0079098735
81	0xbdafdcae	-0.08587013
82	0xbe21529e	-0.15754172
83	0xbce448cd	-0.027866745
84	0xbdf2b411	-0.11850751
85	0x3e2555d0	0.16146016
86	0xbd9207a3	-0.07130363
87	0x3dd76fd1	0.10519374
88	0xbd854ed9	-0.065091796
89	0x3d15c747	0.036567
90	0xbcd554a7	-0.026041342
91	0x3e218a8e	0.1577551
92	0x3e271c34	0.16319352
93	0x3c986125	0.01860101
94	0x3e322b6c	0.17399377
95	0x3cfa94c2	0.030588511
96	0x3ce7a937	0.02827893
97	0xbd6f9d4f	-0.05849963
98	0xbc1adadb	-0.009451593
99	0x3cfb694d	0.03068986
100	0xbdde9bab	-0.10869535
101	0xbc02bddb	-0.007979835
102	0xbdb37c30	-0.08763921
103	0x3cc6c2dc	0.024262838
104	0xbaa2ac1b	-0.001241091
105	0xb8bfe3ff	-9.150057e-05
106	0xbd9d778d	-0.07688818
107	0xbdf9252b	-0.12165292
108	0x3dbf7510	0.093485
109	0x3e3b69a8	0.18302023
110	0xbd30c4f1	-0.043156568
111	0x3c4e5f6a	0.012595991
112	0xbcaee85d	-0.021351034
113	0x3ceb6046	0.02873243
114	0x3e041679	0.12899198
115	0xbc9c0936	-0.01904736
116	0x3db10ff9	0.08645625
117	0x3e0d0366	0.13770828
118	0xbd9bf19c	-0.07614443
119	0x3dc348f7	0.09535401
120	0x3e203e80	0.15648842
121	0xbdbef550	-0.093241334
122	0x3cdc3484	0.02688051
123	0x3d1b19ac	0.03786628
124	0x3c48e281	0.012261034
125	0xbd81f352	-0.06345238
126	0xbd809b80	-0.06279659
127	0xbd78e304	-0.060763374
128	0x3ce0d8b6	0.027447086
129	0x3d939796	0.07206647
130	0x3e1bfe74	0.15233785
131	0xbe039313	-0.12849073
132	0xbd5024d5	-0.050816376
133	0x3b7d1d4f	0.0038622206
134	0x3e65a126	0.22424755
135	0x3e10e90b	0.14151399
136	0xbcf1e510	-0.02952817
137	0x3b0524f4	0.0020316215
138	0x3e3c0275	0.18360312
139	0x3e81854a	0.25297004
140	0xbd99766d	-0.07493291
141	0x3cbc897c	0.023014776
142	0xbd8cc0dc	-0.068727225
143	0x3d1e7186	0.038682483
144	0x3d979758	0.074019134
145	0xbd05ee3f	-0.032697912
146	0xbdfca6c8	-0.123364985
147	0xbe547f8a	-0.20751777
148	0xbd9434be	-0.07236622
149	0x3d2d5f19	0.04232702
150	0x3d9eb7db	0.077499114
151	0x3d0f43c0	0.03497672
152	0x3e176ce4	0.14787632
153	0xbd29cc00	-0.041454315
154	0x3da7b83e	0.08189438
155	0x3d258016	0.040405355
156	0x3cfed037	0.031105144
157	0xbbf8a021	-0.007587448
158	0xbbab4353	-0.0052265315
159	0x3dd5b210	0.10434353
160	0x3cd067bc	0.02544009
161	0x3d116f8f	0.03550678
162	0xbcbf6bcc	-0.023366831
163	0xbd77b7d1	-0.060478035
164	0x3e10156f	0.14070676
165	0x3da1624f	0.07880079
166	0x3cb53650	0.022120625
167	0x3dee6a39	0.11641354
168	0x3b0af34f	0.0021202152
169	0x3e02d7e4	0.12777668
170	0x3d33106c	0.043716833
171	0x3d304a68	0.04303971
172	0x3c85efa8	0.016349629
173	0xbe02094f	-0.12698863
174	0xbe08054b	-0.13283269
175	0x3e08cc41	0.13359167
176	0x3e798824	0.2436834
177	0xbcf29f60	-0.029617012
178	0xba5b6e8f	-0.00083706615
179	0x3c930856	0.01794831
180	0xbd0c7e66	-0.03430023
181	0x3dafb814	0.08580032
182	0x3e3bc55a	0.18337002
183	0xbd795d15	-0.060879786
184	0xbd189bb2	-0.037257858
185	0x3dbbe161	0.09173847
186	0xbd3eaf62	-0.046553977
187	0x3daa4474	0.08313838
188	0x3e1bc762	0.15212777
189	0x3e13a5cd	0.14418717
190	0xbe08391c	-0.13303035
191	0x3d0364d6	0.032078587
192	0xbdb85aca	-0.09001692
193	0x3deb01d5	0.11474959
194	0x3d027856	0.031853043
195	0x3d145c9f	0.036221143
196	0x3db7cfd3	0.08975186
197	0x3afdc2e4	0.001936045
198	0xbd2b3160	-0.041795135
199	0xbda21821	-0.079147585
200	0x3e23b72f	0.15987848
201	0xbdcf2d3e	-0.10116051
202	0xbc51ddc3	-0.01280922
203	0x3c15abb6	0.009135177
204	0x3dc740a5	0.09729127
205	0x3d9dffef	0.07714831
206	0x3d6e33f3	0.05815501
207	0xbc5b9b8e	-0.013403786
208	0xbd872f0a	-0.06600769
209	0x3e14cd85	0.14531524
210	0x3c141a01	0.009039403
211	0x3da1895a	0.07887526
212	0x3e035ebc	0.12829107
213	0x3d63a2a0	0.055575013
214	0x3db05c59	0.08611364
215	0x3e6f3bc9	0.2336265
216	0x3d952b65	0.072836675
217	0x3d31ccb9	0.04340813
218	0xbd93c6f8	-0.07215685
219	0x3a5fb8fa	0.00085343386
220	0x3e673528	0.22578871
221	0x3e13d538	0.14436805
222	0xbd7241f6	-0.059144937
223	0xbe118186	-0.14209566
224	0x3d7a61b6	0.06112834
225	0x3c954e82	0.018225912
226	0x3e314600	0.17311859
227	0x3e429bf2	0.19004801
228	0xbd8d97df	-0.06913733
229	0x3d1ce7d9	0.038307045
230	0x3de73080	0.112885475
231	0x3d131e03	0.035917293
232	0x3e43bba4	0.19114548
233	0x3d509255	0.050920803
234	0x3d10a111	0.035309855
235	0x3dfd20d7	0.12359779
236	0x3cf293b5	0.029611448
237	0x3dc976c1	0.09837104
238	0x3c7effeb	0.015563945
239	0x3dab61ac	0.08368239
240	0xbd62e79a	-0.055396654
241	0xbd9ab245	-0.075535335
242	0x3dbe48e4	0.092912465
243	0x3d94cee3	0.07266023
244	0xbd937b41	-0.07201243
245	0xbb26456b	-0.0025370966
246	0xbd8cece1	-0.068811186
247	0x3c94aa19	0.018147515
248	0xbd5835ae	-0.052785568
249	0x3d08b63d	0.03337692
250	0x3bf7c2cf	0.007561065
251	0x3df72aba	0.12068696
252	0x3e32357c	0.17403215
253	0x3dd193df	0.10233282
254	0xbe19ab37	-0.1500672
255	0xbbe7fa89	-0.0070794267

fc1.bias f4 [128]
0	0xbb8e8a3b	-0.0043499744
1	0xbaa820a1	-0.0012827107
2	0xbc8c5a4e	-0.017132904
3	0xbcb989c6	-0.022648703
4	0x3cb795e4	0.02241034
5	0x3bfcfb37	0.007720377
6	0xbc5b147f	-0.013371586
7	0xbbd65440	-0.006540805
8	0xbb3ae288	-0.002851637
9	0xbb5531dc	-0.003253094
10	0x3c944646	0.018099915
11	0xbca068c2	-0.019581202
12	0x3c1ea7cc	0.009683561
13	0xbc6d87d8	-0.01449772
14	0xba3e1c6f	-0.0007252162
15	0x3886257c	6.3966e-05
16	0xbcbe2c28	-0.023214415
17	0xb9e7ea5d	-0.00044234368
18	0xbcaa5c35	-0.02079592
19	0xbc77e777	-0.015130869
20	0x3c891121	0.0167318
21	0xbc44973b	-0.011998947
22	0xbb0be0b8	-0.002134366
23	0x3c9f3afc	0.019437306
24	0x3c407ec1	0.0117489705
25	0x3c3c833b	0.011505897
26	0xbc903f40	-0.017608285
27	0xbc8b2bc7	-0.016988648
28	0xbcbbc64e	-0.022921707
29	0xbbf481da	-0.0074617686
30	0x3c829634	0.015940763
31	0x3c65f0ba	0.0140344445
32	0x3c3954ae	0.011311693
33	0xb9c9eb89	-0.00038513195
34	0x3c3c4142	0.011490168
35	0x3c916769	0.017749505
36	0x3c72e3cf	0.014824822
37	0x3c6317cd	0.013860655
38	0x3c1fedd3	0.009761292
39	0x3c892a73	0.016743874
40	0x3be6622c	0.007030746
41	0x3b77d345	0.0037815135
42	0x3c809fd9	0.015701221
43	0x3c431fe2	0.011909457
44	0xbb1c30ba	-0.0023832754
45	0xbc10c38f	-0.008835687
46	0x3b08d79b	0.0020880464
47	0xbcad3b28	-0.021146372
48	0x3c51a1fc	0.012794968
49	0xbbc4251f	-0.0059858705
50	0x3bffef2d	0.0078104944
51	0xbba66fc7	-0.005079243
52	0xbbb78002	-0.0055999765
53	0xbc334cd7	-0.010943613
54	0x39cf8fbd	0.0003958921
55	0x3b813311	0.003942855
56	0x3cd0515a	0.025429416
57	0x3cd54839	0.026035415
58	0x3c235960	0.009970039
59	0xbc9bd54b	-0.019022604
60	0xbbbb3e26	-0.005714196
61	0x3c9a3e29	0.018828468
62	0xbc24d4f6	-0.0100605395
63	0xbcbff7ef	-0.023433654
64	0x3c920ef7	0.017829401
65	0xbbcb8bdc	-0.006211741
66	0xbca9bff3	-0.020721411
67	0xbc0acf7d	-0.008472321
68	0x3cbcf4b5	0.023065904
69	0x3c91dad2	0.017804537
70	0x3a7b39d7	0.0009583509
71	0x3cb21578	0.021738753
72	0xbc65a43e	-0.014016209
73	0x3b90f07e	0.0044232
74	0xbbdd014b	-0.006744539
75	0x3c42f06a	0.0118981395
76	0xbb3147e7	-0.0027050914
77	0xbc411bbc	-0.011786398
78	0xbbadd90b	-0.0053054146
79	0xbc833492	-0.016016278
80	0x3c0d23b5	0.00861447
81	0xbb5a4161	-0.003330313
82	0xbc1bce21	-0.009509594
83	0xbc612d0c	-0.01374365
84	0xbc6022c6	-0.013680166
85	0x3b71334e	0.0036804262
86	0xbc75f820	-0.015012771
87	0xbc0d30f8	-0.008617632
88	0xbc9367c5	-0.017993817
89	0xbbafb693	-0.0053623407
90	0x3bc1b58f	0.005911536
91	0xbc8d2e85	-0.017234096
92	0xbc8f0a7c	-0.017461054
93	0x3c92ccd1	0.01791993
94	0xba56722d	-0.00081804657
95	0x3c87961c	0.01655107
96	0xbc9793e5	-0.018503139
97	0xbc922f69	-0.017844873
98	0xbccf3b84	-0.025296934
99	0xbb8d8539	-0.00431886
100	0x3b23b6e9	0.002498085
101	0x3c57a385	0.013161545
102	0xbccec4d0	-0.025240332
103	0x3cb431f7	0.021996481
104	0xbc34c637	-0.011033586
105	0x3ca937fa	0.020656575
106	0x3c63dbc7	0.0139073795
107	0x3a95451b	0.0011388393
108	0xbccde4a9	-0.025133448
109	0x3c8d41ed	0.01724335
110	0xbb15ada3	-0.0022839091
111	0x3b1e2660	0.002413176
112	0xbc525dbf	-0.012839734
113	0xbc546787	-0.012964136
114	0xbc45149b	-0.0120288385
115	0xbc62f434	-0.013852168
116	0xbca6a6dd	-0.020343238
117	0x3c871836	0.016491037
118	0xbc1ebc99	-0.00968852
119	0xbc09879f	-0.008394151
120	0x3c12f50b	0.008969556
121	0xbb529023	-0.003212937
122	0x3c6b1715	0.014348765
123	0xbceaf3d4	-0.02868072
124	0x3cded4d5	0.027201096
125	0x3cb8901f	0.02252966
126	0xbcdc7b06	-0.02691413
127	0x3bcc3a44	0.0062325317

bn_fc1.weight f4 [128]
0	0x3fd84569	1.6896182
1	0x3fd6199d	1.6726567
2	0x3fe3d96e	1.7800729
3	0x3fd9db02	1.7019961
4	0x3fd1fc81	1.6405183
5	0x3fdc2152	1.7197669
6	0x3fdcd3e7	1.7252167
7	0x3fe1f5c9	1.7653133
8	0x3fd957af	1.6979884
9	0x3fdf20ba	1.7431862
10	0x3fd3d540	1.6549454
11	0x3fdc45f4	1.7208848
12	0x3fdc16ff	1.7194518
13	0x3fdf8f94	1.7465692
14	0x3fe67ff9	1.8007804
15	0x3ffcc187	1.974656
16	0x3fd1564b	1.635446
17	0x3fd323ca	1.6495297
18	0x3fe9f3f0	1.8277569
19	0x3fcdaefc	1.6069026
20	0x3fcb8351	1.589945
21	0x3fdefceb	1.7420934
22	0x3fdcac36	1.7240055
23	0x3fdb069a	1.711139
24	0x3fde9a5f	1.739086
25	0x3fd46a0f	1.6594867
26	0x3fd0d472	1.6314833
27	0x3fe99b08	1.8250437
28	0x3fd64514	1.6739831
29	0x3fdb07e1	1.711178
30	0x3fe2d09a	1.771991
31	0x3fd8e551	1.6944982
32	0x3fe05fe3	1.7529262
33	0x3fdd4521	1.7286721
34	0x3ff9524e	1.9478242
35	0x3fe3dede	1.7802389
36	0x3fc8a42c	1.5675101
37	0x3fd403e7	1.6563691
38	0x3ff2a01e	1.8955114
39	0x3fd1d415	1.6392847
40	0x3fd85c0d	1.6903092
41	0x3fe10735	1.7580324
42	0x3fd91bd4	1.6961617
43	0x3fd0316e	1.6265085
44	0x3fcea82e	1.6145074
45	0x3fec0875	1.8440081
46	0x3fd222b0	1.6416836
47	0x3fd87080	1.6909332
48	0x3fc1f625	1.5153242
49	0x3fd69e7e	1.6767118
50	0x3fdcc60a	1.7247937
51	0x3fd91fc0	1.6962814
52	0x3fcc5a03	1.5964969
53	0x3fde0446	1.7345054
54	0x3fd8e7c6	1.6945732
55	0x3fcfcdf0	1.6234722
56	0x3fd1d158	1.6392012
57	0x3fea5e99	1.8310119
58	0x3fd6583f	1.674568
59	0x3fc77373	1.5582107
60	0x3fe113f8	1.7584219
61	0x3fd33831	1.6501523
62	0x3fe8bb42	1.8182147
63	0x3fd16fe6	1.6362274
64	0x3fdc6136	1.7217166
65	0x3fd1ce6c	1.639112
66	0x3fd9a2fc	1.7002864
67	0x3fe078f2	1.753691
68	0x3fee52f4	1.8619065
69	0x3ff050a9	1.8774616
70	0x3fd5de9a	1.6708558
71	0x3fc429e9	1.532529
72	0x3fdf1565	1.7428404
73	0x3fef1f26	1.8681381
74	0x3fe3afa9	1.7787982
75	0x3fca9e3b	1.5829538
76	0x3fd58e2b	1.6684011
77	0x3fe86382	1.8155367
78	0x3fd198a4	1.6374707
79	0x3fcd7c8d	1.6053635
80	0x3fd278f3	1.6443161
81	0x3fdc7a30	1.7224789
82	0x3fc774b1	1.5582486
83	0x3fd5280f	1.665285
84	0x3fe14047	1.7597741
85	0x3ffcde0f	1.9755267
86	0x3fd2c305	1.6465765
87	0x3fb16640	1.3859329
88	0x3fe3049e	1.7735784
89	0x3fe601b1	1.7969266
90	0x3fd9298d	1.6965805
91	0x3fe00c87	1.7503823
92	0x3fd549a8	1.6663103
93	0x3fcd5c27	1.6043748
94	0x3fe46e83	1.7846226
95	0x3fc82bbc	1.5638347
96	0x3fc6fa34	1.5545106
97	0x3fe076ff	1.7536315
98	0x3fd5c1f6	1.6699817
99	0x3fc3bbb2	1.5291655
100	0x3fc7eb7e	1.5618742
101	0x3fde0dbf	1.7347945
102	0x3fcc8b8c	1.5980086
103	0x3fcf7a15	1.6209131
104	0x3fc1bb49	1.513528
105	0x3fd7802e	1.6835992
106	0x3fcf06b8	1.6173925
107	0x3fcce9c5	1.6008841
108	0x3fd806fd	1.6877133
109	0x3ff156b6	1.8854587
110	0x3fcd6e18	1.6049223
111	0x3fd8c28e	1.6934373
112	0x3fce0b10	1.6097126
113	0x3fc56e98	1.5424376
114	0x3fdf3cae	1.7440393
115	0x3fcf7904	1.6208806
116	0x3fd42419	1.6573516
117	0x3fd4d3c8	1.662713
118	0x3fc71470	1.5553112
119	0x3fcd1c4a	1.6024258
120	0x3fd3860e	1.6525285
121	0x3fc85c75	1.5653216
122	0x3fc6f3af	1.5543116
123	0x3fc2f576	1.5231159
124	0x3fe1d4b6	1.7643039
125	0x3fd1c50e	1.6388261
126	0x3fcb5e06	1.5888069
127	0x3fc51666	1.539746

bn_fc1.bias f4 [128]
0	0x3e70d335	0.23518069
1	0x3e2bb739	0.16769113
2	0x3e2c5c62	0.16832116
3	0x3d21a239	0.03946135
4	0x3ce7f0d1	0.028313072
5	0xbbf34a10	-0.0074246004
6	0x3e8228ee	0.25421852
7	0x3db2cd35	0.087305464
8	0x3cea32ab	0.028588613
9	0x3e235e05	0.15953834
10	0x3e84b3e9	0.2591851
11	0x3e6cce31	0.23125531
12	0x3e997530	0.2997222
13	0x3e2cc462	0.16871789
14	0x3deebee0	0.116575
15	0x3e92c23a	0.28663808
16	0x3c8223c8	0.015886202
17	0x3e5e3749	0.21700777
18	0x3e21be4f	0.15795253
19	0x3e65a271	0.22425248
20	0x3e25b9dc	0.16184181
21	0x3d88c057	0.06677311
22	0x3e49334a	0.19648471
23	0x3e5b8955	0.21439107
24	0x3e2802fa	0.16407385
25	0x3e4467ea	0.19180265
26	0x3e7b3f48	0.24535859
27	0x3e765e55	0.24059422
28	0x3e878a96	0.2647292
29	0x3e6028c0	0.21890545
30	0x3e2d8b72	0.16947725
31	0x3e6c5f21	0.23083164
32	0x3e08be00	0.13353729
33	0x3df50a98	0.11964911
34	0x3e4f6766	0.20254287
35	0x3d962662	0.0733154
36	0x3e81ada0	0.25327778
37	0x3e83f928	0.2577603
38	0x3e83a08c	0.25708425
39	0x3df8a97d	0.12141702
40	0x3da8ecf4	0.0824832
41	0x3e11d7cd	0.14242478
42	0x3ec7e4e5	0.3904182
43	0x3dcddd18	0.10051936
44	0x3e70fb55	0.23533376
45	0x3de6080b	0.11232003
46	0x3e5ff213	0.21869688
47	0x3d99f05c	0.07516548
48	0x3e49540b	0.19660966
49	0x3e016af4	0.12638456
50	0x3e075720	0.1321683
51	0x3e65994b	0.22421758
52	0x3e21cc17	0.1580051
53	0x3e0f375d	0.13985963
54	0x3d8d19f9	0.068897195
55	0x3e89626f	0.2683291
56	0x3e0fd540	0.14046192
57	0x3e1682a2	0.1469827
58	0x3d8e970e	0.06962405
59	0x3dcd448f	0.10022842
60	0x3e2fd370	0.17170501
61	0x3e2e75d7	0.1703714
62	0x3e8120dd	0.25220385
63	0x3e57537b	0.21027939
64	0x3db5d19a	0.08877869
65	0x3e7ac905	0.24490745
66	0x3e419bb4	0.18907052
67	0x3b92f1c7	0.0044843885
68	0x3e1d9dfe	0.153923
69	0x3e411b3b	0.18858044
70	0x3d9d213e	0.07672356
71	0x3dc53293	0.09628787
72	0x3e9cc904	0.30622113
73	0x3dafe24c	0.085880846
74	0x3dda6e92	0.10665621
75	0x3c1097a3	0.0088252155
76	0x3e34118a	0.17584816
77	0x3dda45f9	0.106578775
78	0x3e054ea5	0.13018282
79	0x3e1a94be	0.15095803
80	0x3e90d6ea	0.28288966
81	0x3e52a8a2	0.20572141
82	0x3e5c4390	0.21510148
83	0x3e4f4386	0.20240602
84	0xbb8f8440	-0.004379779
85	0x3e5c82ab	0.21534221
86	0x3e05da03	0.13071446
87	0x3e0a3bbf	0.13499354
88	0x3d014782	0.031562336
89	0x3e0d670a	0.13808838
90	0x3e62f038	0.22161949
91	0x3def56eb	0.116865
92	0x3e095e33	0.1341484
93	0x3e6b53af	0.22981142
94	0x3e4b356f	0.19844602
95	0x3e1f01d8	0.15528047
96	0x3e24d521	0.16096927
97	0xbb9116e6	-0.0044277785
98	0xbc037417	-0.008023283
99	0x3e893033	0.26794586
100	0x3e24c12e	0.16089317
101	0x3e70227b	0.23450653
102	0x3dde6072	0.10858239
103	0x3e8705d4	0.26371634
104	0x3d59d100	0.053177834
105	0x3e466806	0.1937562
106	0x3e32e81b	0.17471354
107	0x3e0f5c56	0.14000067
108	0x3e3ef66a	0.18648687
109	0x3e18ec3d	0.14933868
110	0x3e0bec87	0.13664447
111	0x3d91eb1c	0.07124922
112	0x3e640399	0.22266997
113	0x3cac9df5	0.021071414
114	0x3e66a105	0.22522362
115	0x3e0faf42	0.140317
116	0x3e112091	0.1417258
117	0x3ebc9c11	0.3683782
118	0x3d3e5129	0.04646412
119	0x3e1d0f14	0.15337783
120	0x3dd8912f	0.105745666
121	0x3c6be9b3	0.01439898
122	0x3e93443f	0.28763005
123	0x3e9c30d0	0.3050599
124	0x3da2612b	0.079286896
125	0x3e8644a1	0.26224235
126	0xbc12b28f	-0.0089537045
127	0x3e21f941	0.15817739

bn_fc1.running_mean f4 [128]
0	0x408d3e2a	4.4138384
1	0xc05b4bad	-3.426494
2	0x40abaf67	5.3651614
3	0xc0f136a2	-7.537919
4	0x401d71ae	2.4600635
5	0xc116fdf1	-9.436997
6	0x3ea0312d	0.31287518
7	0xc0f87af8	-7.765011
8	0x4059506a	3.395533
9	0xc04fb626	-3.2454925
10	0x4012e202	2.2950444
11	0xc0006cfc	-2.0066519
12	0x402ca645	2.6976483
13	0x3ef0c668	0.47026372
14	0xc0ff60e6	-7.9805784
15	0x40c1ccab	6.056234
16	0xbfa029c0	-1.2512741
17	0xbed847ac	-0.4224218
18	0xc0b0a587	-5.520206
19	0x3e99fb2f	0.3007445
20	0xbf7ad033	-0.97973937
21	0xc0c8830c	-6.265997
22	0xc09b5b6c	-4.85491
23	0xc0823bc6	-4.0697966
24	0x3f021d3c	0.5082586
25	0xbed6dc40	-0.41964912
26	0xbfbaa3aa	-1.4581196
27	0x40026bfe	2.0378413
28	0x3f8cdffc	1.1005855
29	0xc089a074	-4.3008366
30	0xc05013c3	-3.2512062
31	0x3f123bf3	0.57122725
32	0x3f46f849	0.77722603
33	0x3fe9bbdb	1.8260454
34	0xc09a4a16	-4.8215437
35	0xbf842d3c	-1.0326304
36	0xbf9e93bd	-1.2388836
37	0x3e652f0e	0.22381231
38	0x3fae86bc	1.3634868
39	0xc0ab2855	-5.3486733
40	0xc09058f6	-4.5108595
41	0xbfb7a41a	-1.4346955
42	0x3e304c0c	0.1721651
43	0xc07a6e6c	-3.9129896
44	0x3f9d4ed4	1.2289681
45	0xc005219a	-2.0801759
46	0xbfbf1eb0	-1.493124
47	0xc03d58a0	-2.9585342
48	0xbf36d9c8	-0.7142606
49	0xbf85ba22	-1.0447428
50	0xc07b2232	-3.923962
51	0xbfda9448	-1.7076502
52	0xc08dd039	-4.431668
53	0x3e987095	0.29773393
54	0xbefd5cde	-0.49484915
55	0x3df2f8a2	0.11863829
56	0xc04c419a	-3.191504
57	0xbfdef7f0	-1.7419415
58	0xbfcc4d2a	-1.5961049
59	0xc075b6d0	-3.839283
60	0x400cba4f	2.1988714
61	0xc0b737ce	-5.725562
62	0x4040cb0c	3.012393
63	0x3eff3eb0	0.49852514
64	0xc0227586	-2.538423
65	0x3f31e957	0.69496673
66	0x3f1ed20a	0.62039244
67	0xbeca813f	-0.39551732
68	0xc0335c65	-2.8025143
69	0xc087d001	-4.244141
70	0xc01425bf	-2.3148038
71	0xc0aaf0fe	-5.341918
72	0x3fd98e1a	1.6996491
73	0xc0d3722e	-6.607688
74	0x406a41d9	3.660269
75	0xc019f81c	-2.4057684
76	0xbf697b56	-0.9120382
77	0xbd9247b4	-0.071425825
78	0x40b96df4	5.794672
79	0xc0726588	-3.787447
80	0x40860673	4.1882873
81	0x407f4f03	3.9891975
82	0xbd8cd250	-0.068760514
83	0xbef1dae8	-0.47237325
84	0xc10e4e06	-8.894049
85	0x408ea12f	4.4571757
86	0x406718ee	3.6108966
87	0x40c6037a	6.1879244
88	0xbf7c4fdf	-0.98559374
89	0xc08dd7e8	-4.4326057
90	0xbf9bb982	-1.2165987
91	0x3f155bb5	0.5834306
92	0x3f8e0b71	1.1097242
93	0xc0036aba	-2.053389
94	0xbfb3478e	-1.4006212
95	0xc0121ea1	-2.2831194
96	0xbe6d4501	-0.23170854
97	0xc01371ba	-2.3038163
98	0xc0896a92	-4.294259
99	0xbffca9e4	-1.9739347
100	0xbfa8e3a9	-1.3194476
101	0xbc0a35b0	-0.008435652
102	0xc00393d9	-2.055899
103	0xc00f2408	-2.2365742
104	0xc09fbbb9	-4.9916654
105	0x3e732b60	0.23747015
106	0xbffc53c8	-1.9713068
107	0x3f3f18da	0.74647295
108	0x3e34681a	0.17617837
109	0xbf1c5c99	-0.6107879
110	0xbd08da72	-0.03341145
111	0xc000b669	-2.0111334
112	0x40000e9c	2.0008917
113	0xbe9c5776	-0.30535477
114	0x3f63d7df	0.8900127
115	0x4034f561	2.8274767
116	0x3f699948	0.91249514
117	0xbf604fd2	-0.87621796
118	0xc064b0ca	-3.5732903
119	0xbf8c3ad5	-1.0955454
120	0x3fbf58d0	1.4948978
121	0xc0583df3	-3.378781
122	0x3f901ee8	1.1259432
123	0x40af85d0	5.4850845
124	0xbf86ffee	-1.0546854
125	0xbe238845	-0.15969951
126	0xc08c74e7	-4.3892703
127	0xbeafe7a0	-0.34356403

bn_fc1.running_var f4 [128]
0	0x41d49567	26.57295
1	0x41df7647	27.932753
2	0x41cbf1a1	25.492983
3	0x42015e41	32.342045
4	0x41d2f75b	26.370779
5	0x421311bb	36.767315
6	0x41c60455	24.752115
7	0x4206b3da	33.675636
8	0x41f18228	30.188553
9	0x41e27201	28.305666
10	0x41cb2618	25.3936
11	0x4204d550	33.208313
12	0x41e2ba4a	28.340961
13	0x41e48bc5	28.568247
14	0x420fa96f	35.915462
15	0x41ebbc4d	29.466944
16	0x41f7604e	30.922024
17	0x41f6cddf	30.850523
18	0x422a3a81	42.557133
19	0x41b19ecc	22.202538
20	0x42057ec5	33.3738
21	0x420745e3	33.81825
22	0x41ed0979	29.629625
23	0x42086fab	34.10905
24	0x41d05f56	26.04655
25	0x420287f6	32.632774
26	0x41cd7e2a	25.686604
27	0x4202c27e	32.689934
28	0x41bf8fb7	23.945173
29	0x420cee1f	35.23254
30	0x42142a03	37.041027
31	0x41d7fa54	26.99723
32	0x41b50bd8	22.630783
33	0x41e03481	28.025637
34	0x41c281e5	24.313425
35	0x41bd7aed	23.685022
36	0x4201ecd3	32.481274
37	0x420727ce	33.78887
38	0x4229f92e	42.49334
39	0x41c41101	24.508303
40	0x41e97fe3	29.187445
41	0x4207890f	33.883846
42	0x4207483b	33.820538
43	0x41b46d61	22.553408
44	0x41add078	21.726791
45	0x41f8b95c	31.090508
46	0x41f454ea	30.541462
47	0x41dd82c5	27.688852
48	0x41b3ac80	22.459229
49	0x41d8831c	27.064018
50	0x41f95d3d	31.170527
51	0x41dbf24e	27.493313
52	0x42087baa	34.120766
53	0x420b526c	34.83049
54	0x41cfa3a5	25.954905
55	0x41fb0fd2	31.382725
56	0x41f62f97	30.773237
57	0x420b6620	34.84973
58	0x41e03b37	28.028913
59	0x4208cfde	34.202995
60	0x41fb98c4	31.449593
61	0x41d3583e	26.418087
62	0x420a5524	34.583145
63	0x420c64d0	35.09845
64	0x4210a5d3	36.161938
65	0x41b353de	22.41595
66	0x420643fe	33.5664
67	0x41e7d469	28.978716
68	0x420ce5a1	35.224247
69	0x41c1fd2d	24.248621
70	0x41cfac8c	25.959251
71	0x42228a43	40.63502
72	0x41cc207a	25.515858
73	0x420f27ee	35.788994
74	0x41ee5ece	29.796291
75	0x41e78183	28.938238
76	0x41bbeb20	23.489807
77	0x4208f810	34.24225
78	0x41d521f6	26.641582
79	0x41bfe993	23.98905
80	0x41bd8532	23.690037
81	0x41db2efb	27.39794
82	0x41eb8ee5	29.444773
83	0x41d85591	27.04178
84	0x42163638	37.552948
85	0x42017a3d	32.369373
86	0x420413e7	33.019436
87	0x41a4004b	20.500143
88	0x42128760	36.632202
89	0x423fdc60	47.96521
90	0x42077b9a	33.870705
91	0x42050a54	33.260086
92	0x41c02a0d	24.020533
93	0x41e44ebd	28.538446
94	0x4214443e	37.066643
95	0x41b8e418	23.111374
96	0x41b45b91	22.54471
97	0x41d6055f	26.752623
98	0x4201f04a	32.484657
99	0x41da02e4	27.251411
100	0x42012ba5	32.29262
101	0x420badeb	34.91984
102	0x41ad42d4	21.65763
103	0x41ff6e45	31.928843
104	0x41b60fab	22.75765
105	0x41c9e847	25.238417
106	0x4214000d	37.00005
107	0x41aa82d1	21.313875
108	0x41c27428	24.306717
109	0x41d6756c	26.807335
110	0x41b9ac32	23.20908
111	0x41b8940b	23.072287
112	0x41cbcbb2	25.47446
113	0x41d110c4	26.133186
114	0x423e3b16	47.5577
115	0x41dbf06b	27.492392
116	0x41e55ecd	28.67129
117	0x41e8fb8d	29.122828
118	0x41dc74aa	27.556965
119	0x41e0f82c	28.121178
120	0x41c135f7	24.15135
121	0x41f0de20	30.10846
122	0x419f3753	19.902014
123	0x41df7cd3	27.93595
124	0x41f807c1	31.003786
125	0x41dd9529	27.697832
126	0x41b8422d	23.032312
127	0x41df0711	27.87845
